model.pth (torch, 439383 bytes, 6 tensors)

layer1.weight f4 [128, 784]
-0.030469462 -0.018619264 -0.023772972 0.022490015 0.0029999644 0.03046054 -0.0066491608 0.03563396
0.03506871 -0.004365957 -0.024137719 -0.015860345 -0.023811124 -0.020097777 0.0010886661 0.036229696
-0.007935302 -0.011404496 0.009107954 0.007485937 -0.031056348 -0.021036834 -0.028185831 -0.02110975
-0.012624338 0.031827215 -0.0060802475 0.01834991 0.024124395 0.013286878 0.012363113 -0.024187943
-0.012601344 -0.02932933 -0.0018166263 0.00022589896 0.02406133 -0.034483418 0.02037591 -0.008080694
0.022913748 -0.0033676247 0.011525486 0.010119339 0.02879381 0.011730257 0.028239265 0.03602461
-0.0026243543 0.0035912658 -0.029175319 0.0034751708 -0.019111866 -0.015580608 0.023328414 0.009914597
-0.028636722 0.012693259 -0.03364755 0.0032765123 0.028719898 -0.017098172 0.028040037 0.025349157
0.019805785 0.0071183336 0.03089976 -0.012010633 0.023801893 0.0013527204 0.005587432 0.022655262
-0.02275915 -0.024322327 -0.030682929 0.038562138 0.015693204 0.024504846 0.034995615 -0.002580957
0.033722322 -0.01639917 -0.018763179 -0.032388974 -0.023666918 0.01661415 0.014806789 -0.034851495
-0.028169286 -0.023000078 -0.0031286313 0.029757917 0.00076573883 0.03933683 -0.010877677 0.018322749
0.018853795 0.008755704 -0.013454288 -0.010046777 -0.0094290385 -0.04541098 -0.025132524 -0.00014494921
-0.003855547 -0.011348126 0.024238806 -0.033218235 -0.028068997 -0.024397193 -0.02302753 0.033948537
-0.017272046 0.012905599 0.018336449 -0.028975446 0.013419607 0.020781042 0.049154267 0.0070465105
0.030112201 0.026916152 0.029803643 0.033068594 0.0026176313 0.004435269 -0.026360143 -0.03728723
-0.02966277 -0.04508568 -0.032827847 -0.00834065 0.004016236 0.0007913621 0.013981061 -0.013345139
-0.00011905846 -0.020537352 -0.029710943 -0.014677669 -0.009630882 -0.021406211 -0.011113135 0.0007638917
0.0051067057 0.033059172 0.006894812 0.020744715 0.010619953 -0.005438647 -0.028111473 -0.025810646
0.0032150664 -0.0139525 -0.038286794 -0.053878624 -0.021482548 -0.023381874 -0.007891178 -0.035351872
0.010851819 0.0013953174 -0.007460994 -0.014752688 0.033688717 -0.030592011 0.0023092725 0.011059299
-0.034584597 0.028034817 0.022942992 -0.02361252 -0.0023663396 -0.011513934 0.025972303 -0.009740842
-0.0087745655 0.03333644 -0.022950768 -0.00058303133 -0.026344068 -0.014220053 0.0017670841 -0.008570078
-0.025080226 -0.057042167 -0.031290844 -0.03058808 0.0005463793 0.0038561982 -0.012852703 -0.009778088
0.022706037 -0.026982635 -0.01243106 0.026571117 0.013725018 0.0125049725 -0.022413466 -0.024976369
0.010798307 0.0024633438 0.0017460983 -0.015375819 0.033011917 -0.0141564915 -0.05205491 -0.005479654
0.052097093 0.016675549 -0.010741321 0.00079410797 0.0040956596 -0.043876056 -0.07359817 -0.007654116
-0.009293815 -0.027510641 -0.0033624452 -0.009857198 -0.013765647 0.001349056 0.0064903665 -0.030024212
-0.018853007 -0.028915782 0.008373747 -0.0031374826 -0.009858135 -0.022525704 -0.02409979 -0.029651405
-0.008112592 -0.0026457359 -0.012596546 0.021094924 0.011873377 0.008869509 0.01747973 -0.028634917
-0.057388064 -0.024653384 -0.027955458 -0.055030867 0.0068873297 0.0074901874 0.0113712195 -0.056327146
-0.045004155 -0.03184872 -0.036497023 0.033442605 0.014188622 -0.0244439 0.029689355 -0.027965838
00000000: 189b f9bc 6d87 98bc 89bf c2bc fb3c b83c
00000010: 0d9b 443b 6288 f93c 34e1 d9bb eaf4 113d
00000020: 35a4 0f3d 4d10 8fbb 77bc c5bc 8eed 81bc
00000030: 8c0f c3bc 18a4 a4bc 93b1 8e3a 9765 143d
00000040: 1203 02bc ecd9 3abc 8739 153c 974c f53b
00000050: e269 febc 7055 acbc f9e5 e6bc 5bee acbc
00000060: 50d6 4ebc 415d 023d d03c c7bb 8d52 963c
00000070: 86a0 c53c 35b1 593c a88e 4a3c cb25 c6bc
00000080: de75 4ebc 1044 f0bc dd1b eeba 4adf 6c39
00000090: 441c c53c 7c3e 0dbd 61eb a63c e364 04bc
000000a0: 9db5 bb3c 5eb3 5cbb 64d5 3c3c 96cb 253c
000000b0: ffe0 eb3c 4430 403c 0856 e73c 8b8e 133d
000000c0: 5cfd 2bbb 715b 6b3b 1401 efbc b1bf 633b
000000d0: 7d90 9cbc ce45 7fbc 3b1b bf3c d570 223c
000000e0: 8f97 eabc 63f7 4f3c 03d2 09bd c1ba 563b
000000f0: fe45 eb3c 7711 8cbc 38b4 e53c 09a9 cf3c
00000100: be3f a23c e940 e93b 7e21 fd3c 3fc8 44bc
00000110: 30fc c23c c44d b13a c716 b73b 8797 b93c
00000120: 6671 babc 9e3f c7bc c45a fbbc 55f3 1d3d
00000130: 098f 803c 63be c83c 9057 0f3d 4625 29bb
00000140: 6b20 0a3d 8d57 86bc 3db5 99bc 4daa 04bd
00000150: 20e1 c1bc 661a 883c 2d98 723c 71c0 0ebd
00000160: 46c3 e6bc a96a bcbc b909 4dbb e0c6 f33c
00000170: ddbb 483a a81f 213d 4938 32bc 9719 963c
00000180: 4673 9a3c 1674 0f3c 606f 5cbc 3d9b 24bc
00000190: 417c 1abc dd00 3abd b9e2 cdbc 82fd 17b9
000001a0: 58ad 7cbb 7eed 39bc 7690 c63c d80f 08bd
000001b0: f4f0 e5bc 9fdc c7bc 3ba4 bcbc 9f0d 0b3d
000001c0: 1b7e 8dbc 0172 533c 5236 963c ea5d edbc
000001d0: e9dd 5b3c 013d aa3c fc55 493d 6ae6 e63b
000001e0: ddad f63c 437f dc3c c526 f43c ef72 073d
000001f0: 918c 2b3b bc55 913b 3af1 d7bc 7fba 18bd
00000200: 56ff f2bc c3ab 38bd 7e76 06bd 39a7 08bc
00000210: a19a 833b 6973 4f3a d210 653c 92a5 5abc
00000220: 06af f9b8 f33d a8bc 5d64 f3bc 9b7a 70bc
00000230: d9ca 1dbc 145c afbc de13 36bc e73f 483a
00000240: 2756 a73b 0e69 073d e0ed e13b d2f0 a93c
00000250: 50ff 2d3c ad36 b2bb 084a e6bc d970 d3bc
00000260: ddb3 523b 0799 64bc 9dd2 1cbd d5af 5cbd
00000270: 2bfc afbc 588b bfbc 004a 01bc 20cd 10bd
00000280: d4cb 313c 15e3 b63a 5b7b f4bb 42b5 71bc
00000290: 2efd 093d 199c fabc 2a57 173b 1032 353c
000002a0: 94a8 0dbd 46a9 e53c f1f2 bb3c 0b6f c1bc
000002b0: 9714 1bbb f0a4 3cbc dec3 d43c 0d98 1fbc
000002c0: 32c3 0fbc ca8b 083d 4003 bcbc 92d6 18ba
000002d0: 84cf d7bc 3afb 68bc 819d e73a 8369 0cbc
000002e0: 0c75 cdbc 0ca5 69bd d42a 00bd da93 fabc
000002f0: e53a 0f3a 45b8 7c3b 2594 52bc 4634 20bc
00000300: 0302 ba3c b00a ddbc a5ab 4bbc acab d93c
00000310: e6de 603c a8e1 4c3c 729c b7bc 3e9b ccbc
00000320: 62eb 303c 0d70 213b 56dd e43a dcea 7bbc
00000330: 8137 073d a1f0 67bc 8837 55bd ab8e b3bb
00000340: c363 553d 299b 883c 5efc 2fbc af2b 503a
00000350: e234 863b 61b7 33bd a3ba 96bd 61cf fabb
00000360: 1645 18bc ff5d e1bc 785c 5cbb 1680 21bc
00000370: 4f89 61bc cfd2 b03a 24ad d43b 56f5 f5bc
00000380: 9f71 9abc cae0 ecbc 0a32 093c 399e 4dbb
00000390: 0484 21bc d387 b8bc ec6c c5bc 81e7 f2bc
000003a0: adea 04bc 1564 2dbb be61 4ebc 43cf ac3c
000003b0: 8d88 423c 6b51 113c a731 8f3c c693 eabc
000003c0: bf0f 6bbd e5f5 c9bc d802 e5bc 0c68 61bd
000003d0: 1caf e13b 3f70 f53b 5a4e 3a3c 4bb7 66bd
000003e0: 4756 38bd ce73 02bd e77d 15bd 1dfb 083d
000003f0: 6577 683c 933e c8bc 1737 f33c 9d18 e5bc

layer1.bias f4 [128]
-0.010505833 0.008149291 -0.012239117 0.0029749495 0.0044199964 0.0021596793 -0.033713065 0.03196587
-0.010214442 -0.009805409 0.017889317 0.021727793 0.007973987 -0.023972038 -0.015793204 -0.027995417
-0.037891407 -0.031561192 0.028930457 0.021162309 0.022715248 0.013210476 0.0013621835 -0.01249551
-0.02136169 -0.03057046 -0.02929542 -0.0398315 0.0045304857 -0.007940549 -0.016703488 0.010666914
0.039534356 0.034070898 -0.00729709 -0.021599608 0.018467195 -0.034292568 0.0057982616 -0.021446295
-0.033652544 0.023054952 -0.0073347883 -0.025538223 -0.030313518 -0.005089707 -0.014159829 0.01072173
-0.004433726 -0.026789235 -0.016880477 -0.038226824 0.028249247 0.022388186 0.010503194 0.029794876
0.008967803 -0.024398018 0.03304281 -0.024609135 0.039274007 0.023046836 -0.018009834 0.0026912375
-0.007955701 -0.005494721 -0.02533172 -0.022259533 0.0054136864 0.0066208695 0.016343873 -0.011550291
0.011975972 0.018770272 0.027346449 0.029006796 -0.021087833 0.01920487 -0.024143457 -0.01019574
0.028513536 0.03569698 0.026655696 -0.015033517 -0.035852555 -0.018813496 -0.040098827 -0.00033500354
-0.024156507 -0.009949795 -0.030110097 -0.012252426 -0.009511229 0.013307269 -0.015772486 -0.016566075
0.009382525 0.00329945 -0.0057034483 -0.0038940036 0.008161997 0.0009613926 0.010863992 -0.024936015
0.0017689711 -0.03235004 -0.03197542 -0.0025816406 -0.0091307 -0.0006382577 0.022400403 0.020272657
-0.022576569 0.014801394 -0.009855109 0.0016384269 0.016295258 0.021704635 -0.010712792 0.009219235
-0.030219752 0.024592431 0.03247836 0.019200811 0.034001578 -0.020117396 -0.023815889 -0.043187864
00000000: a820 2cbc 9b84 053c 9486 48bc 5ff7 423b
00000010: 9ed5 903b 6889 0d3b b616 0abd a5ee 023d
00000020: 7a5a 27bc dea6 20bc 9e8c 923c 7cfe b13c
00000030: 53a5 023c 0261 c4bc c060 81bc a556 e5bc
00000040: 0534 1bbd 4f46 01bd 91ff ec3c 945c ad3c
00000050: 5415 ba3c c170 583c 4b8b b23a f8b9 4cbc
00000060: b6fe aebc e76e fabc f3fc efbc 5b26 23bd
00000070: 7874 943b 1419 02bc c1d5 88bc 48c4 2e3c
00000080: c7ee 213d ed8d 0b3d 6d1c efbb a9f1 b0bc
00000090: 8448 973c 5d76 0cbd 58ff bd3b 24b0 afbc
000000a0: 40d7 09bd bddd bc3c aa58 f0bb 8935 d1bc
000000b0: 0e54 f8bc 8fc7 a6bb a1fe 67bc 32aa 2f3c
000000c0: ca48 91bb 1975 dbbc ed48 8abc bb93 1cbd
000000d0: f76a e73c 6e67 b73c 9715 2c3c 6214 f43c
000000e0: b1ed 123c 5ade c7bc e657 073d 1999 c9bc
000000f0: c8dd 203d b8cc bc3c 5c89 93bc 795f 303b
00000100: a158 02bc 0f0d b4bb 7884 cfbc a059 b6bc
00000110: 4b65 b13b e1f3 d83b 96e3 853c 6f3d 3dbc
00000120: de36 443c 1dc4 993c a905 e03c a99f ed3c
00000130: 64c0 acbc 8853 9d3c 80c8 c5bc 080c 27bc
00000140: 3895 e93c ff36 123d 0c5d da3c 244f 76bc
00000150: 21da 12bd c31e 9abc ab3e 24bd 6aa3 afb9
00000160: dee3 c5bc 7704 23bc 73a9 f6bc 66be 48bc
00000170: fcd4 1bbc bb06 5a3c 4d35 81bc 94b5 87bc
00000180: 2ab9 193c 963b 583b fee3 babb 8a32 7fbb
00000190: e6b9 053c f705 7c3a e3fe 313c 9d46 ccbc
000001a0: d2dc e73a 7a81 04bd a8f8 02bd be30 29bb
000001b0: ee98 15bc c050 27ba 0d81 b73c d812 a63c
000001c0: 7ff2 b8bc 8c81 723c 5377 21bc 7cc0 d63a
000001d0: a27d 853c ebcd b13c b584 2fbc 460c 173c
000001e0: 6a8f f7bc 1176 c93c 0708 053d 054b 9d3c
000001f0: 3d45 0b3d 3dcd a4bc 8a19 c3bc c2e5 30bd

layer2.weight f4 [64, 128]
0.04504689 0.039276537 -0.008063628 -0.09116725 -0.039585855 -0.025778951 -0.03423072 0.00054691266
0.103344545 -0.03990221 -0.05928418 0.012280074 -0.014985405 -0.04655467 -0.02320454 0.00926732
-0.05936 0.0027306871 0.07971379 0.06294351 0.049309906 -0.08190375 -0.00089843816 -0.066391654
-0.032803822 0.060574967 0.033935018 0.014083916 -0.07285657 0.010869146 -0.06001804 0.08421517
-0.023736497 0.061591666 -0.09537636 0.01151909 -0.03927094 -0.0217201 -0.07151348 -0.057493158
-0.08855138 0.068136625 0.019402342 0.08464889 -0.04989336 -0.06961991 -0.0016967364 -0.024333678
-0.090128645 0.0825608 -0.07819213 0.020668253 0.058317065 -0.010181991 -0.0060035894 0.076475926
-0.082091264 0.0414455 0.035413384 0.0037471242 -0.060214516 0.028208429 0.05444322 0.07930796
0.0033670734 0.03218555 -0.06158806 -0.05551059 0.07287405 0.022385813 0.07844439 -0.03279724
-0.032611776 0.05348226 -0.031550117 -0.055336587 -0.012069728 -0.09894106 0.057501 0.035450604
-0.022395179 0.014908373 -0.003949649 -0.013446129 -0.051386807 0.06775046 0.08005673 -0.028734965
0.08493372 -0.059775583 -0.042455547 -0.015756423 -0.068867855 0.07361507 -0.076329164 0.02593433
-0.013359971 0.062798135 -0.040022213 -0.046035595 -0.028153136 0.093912385 0.010424205 0.04459872
0.0012472267 0.037700273 -0.044985726 -0.0412097 -0.023817692 0.03381051 0.04352699 -0.039486866
-0.009711756 -0.0580322 -0.04451141 0.07444429 0.06665416 -0.06420931 0.078735046 0.07440775
0.012675587 -0.055231236 0.11345906 -0.028764786 0.06821101 0.067392565 0.040496245 0.079444304
0.051592678 0.08113869 -0.14259009 -0.034606803 0.044187658 0.0026353756 -0.10477825 0.033544607
-0.051235102 -0.011816521 0.027718315 -0.07037611 -0.06694961 0.20969185 -0.070519924 -0.03256565
-0.058954384 0.027508322 0.15900579 -0.07215862 -0.079916626 0.0133377295 0.004272769 0.09549824
0.090996 0.035411585 0.08733266 -0.091272496 -0.08638922 0.037627466 -0.11425011 0.0089639565
0.12587123 -0.030446565 0.052380785 0.00981642 -0.021157747 -0.15561718 -0.044478506 0.061073896
0.024224786 -0.003861182 -0.083224356 -0.14316018 0.18579513 -0.008450206 0.17399885 -0.18156728
-0.07338974 0.09150121 0.076190725 -0.13841173 0.09289954 0.093242824 -0.032759923 0.098675005
0.0075769234 0.05665771 -0.10231037 -0.056229625 -0.089348905 -0.00048983813 -0.06901867 -0.11051908
-0.04405696 0.18683967 -0.2497727 -0.15253621 0.1504782 0.06137024 -0.0581257 0.015075613
-0.059426323 -0.13211673 -0.00765982 -0.024048747 -0.074298665 0.0621776 -0.026573772 0.085634105
-0.15864016 0.0726467 0.12363 -0.02887303 0.053277805 -0.15562527 0.08679486 0.07027633
0.08869053 0.08482213 0.08346448 -0.027648246 -0.029804613 0.01044377 -0.0886563 -0.12093501
0.09360206 -0.12455971 0.04745494 -0.10755089 -0.03334963 0.13168107 0.04452817 -0.11154948
0.13309371 -0.01806697 -0.21189843 0.011982285 0.18529607 -0.067081474 0.015717048 -0.23937759
0.16590965 0.19201319 0.04319429 -0.08601052 0.05956604 0.0018048591 0.21408507 0.012721319
0.10461162 -0.07154454 0.06690641 0.13825844 0.104998514 0.011524415 0.012394415 -0.11107619
00000000: 1683 383d 6fe0 203d 4f1d 04bc e5b5 babd
00000010: c724 22bd 612e d3bc 8335 0cbd b05e 0f3a
00000020: 4ea6 d33d 8070 23bd f8d3 72bd 5d32 493c
00000030: 5885 75bc 1cb0 3ebd 7317 bebc f5d5 173c
00000040: 7923 73bd 54f5 323b fc40 a33d 87e8 803d
00000050: 2ff9 493d 27bd a7bd 2a85 6bba 59f8 87bd
00000060: 4d5d 06bd 751d 783d 72ff 0a3d 3ac0 663c
00000070: d335 95bd 8114 323c 7ad5 75bd 0179 ac3d
00000080: 0b73 c2bc 8b47 7c3d ae54 c3bd 91ba 3c3c
00000090: 91da 20bd 5aee b1bc a975 92bd f27d 6bbd
000000a0: 6d5a b5bd 378b 8b3d a9f1 9e3c 665c ad3d
000000b0: fb5c 4cbd e294 8ebd 0765 deba 6c57 c7bc
000000c0: 5e95 b8bd a315 a93d 3223 a0bd 7850 a93c
000000d0: e0dd 6e3d 5ed2 26bc c2b9 c4bb 699f 9c3d
000000e0: 771f a8bd c2c2 293d a00d 113d 5092 753b
000000f0: 7fa3 76bd 5d15 e73c dbff 5e3d 366c a23d
00000100: 1eaa 5c3b ffd4 033d c343 7cbd 135f 63bd
00000110: fd3e 953d 7462 b73c 74a7 a03d 6656 06bd
00000120: ed93 05bd 3710 5b3d b23a 01bd 9ea8 62bd
00000130: 1cc0 45bc 9ca1 cabd 2b86 6b3d a734 113d
00000140: 1876 b7bc 4042 743c 0f6c 81bb 274d 5cbc
00000150: f97a 52bd c1c0 8a3d c8f4 a33d 9765 ebbc
00000160: bbf1 ad3d 3ed7 74bd dee5 2dbd 9d13 81bc
00000170: 970a 8dbd 7fc3 963d 7752 9cbd 3b74 d43c
00000180: c8e3 5abc 4f9c 803d 55ee 23bd d28f 3cbd
00000190: 68a1 e6bc 2355 c03d 49ca 2a3c 26ad 363d
000001a0: fc79 a33a 9a6b 1a3d f442 38bd 81cb 28bd
000001b0: 521d c3bc e47c 0a3d 5b49 323d fbbc 21bd
000001c0: 0f1e 1fbc 2cb3 6dbd 9951 36bd 3f76 983d
000001d0: fa81 883d 2c80 83bd d73f a13d 1763 983d
000001e0: 44ad 4f3c 263a 62bd 395d e83d 21a4 ebbc
000001f0: 37b2 8b3d 1d05 8a3d 64df 253d b2b3 a23d
00000200: d852 533d 0b2c a63d 2303 12be ddbf 0dbd
00000210: 1efe 343d 44b6 2c3b fb95 d6bd 1266 093d
00000220: e6db 51bd 159a 41bc 8511 e33c 5a21 90bd
00000230: e11c 89bd 76b9 563e c06c 90bd 8f63 05bd
00000240: 277a 71bd 2259 e13c 6ad2 223e e6c7 93bd
00000250: 54ab a3bd 7e86 5a3c 9602 8c3b 9594 c33d
00000260: 1c5c ba3d bd0b 113d 77db b23d 13ed babd
00000270: d5ec b0bd 421f 1a3d f6fb e9bd 8fdd 123c
00000280: 63e4 003e 136b f9bc 3c8d 563d 0dd5 203c
00000290: 0353 adbc 1c5a 1fbe 182f 36bd 9f28 7a3d
000002a0: 0f73 c63c e20b 7dbb 8871 aabd 9598 12be
000002b0: 1441 3e3e bc72 0abc c12c 323e c6ec 39be
000002c0: 5c4d 96bd fd64 bb3d e209 9c3d cebb 0dbe
000002d0: 1d42 be3d 18f6 be3d 452f 06bd 1f16 ca3d
000002e0: d747 f83b ea11 683d 1988 d1bd 0951 66bd
000002f0: 8ffc b6bd 7b68 00ba a959 8dbd d457 e2bd
00000300: 1275 34bd e652 3f3e 6ac4 7fbe 7432 1cbe
00000310: f516 1a3e 5c5f 7b3d 3715 6ebd b4ff 763c
00000320: 0469 73bd 9c49 07be 3aff fabb e101 c5bc
00000330: e629 98bd f0ad 7e3d 3db1 d9bc ef60 af3d
00000340: 9172 22be cbc7 943d ba31 fd3d 2287 ecbc
00000350: d439 5a3d 3b5c 1fbe 81c1 b13d 09ed 8f3d
00000360: 61a3 b53d 3ab7 ad3d 6def aa3d 937e e2bc
00000370: ce28 f4bc 591c 2b3c 6f91 b5bd c6ac f7bd
00000380: 70b2 bf3d 2919 ffbd 1c60 423d a443 dcbd
00000390: 9f99 08bd 67d7 063e 2c63 363d 0e74 e4bd
000003a0: b849 083e 2f01 94bc e7fb 58be 5951 443c
000003b0: 41be 3d3e 0362 89bd 0ac1 803c 661f 75be
000003c0: 38e4 293e 1b9f 443e 7fec 303d 4926 b0bd
000003d0: 85fb 733d 0691 ec3a 1e39 5b3e 146d 503c
000003e0: 9e3e d63d f285 92bd 3a06 893d 9f93 0d3e
000003f0: 7609 d73d e6d0 3c3c f211 4b3c ea7b e3bd

layer2.bias f4 [64]
0.053009816 -0.03572909 -0.03776583 -0.044915818 0.021287922 0.05166907 0.08811453 0.06280571
0.051833313 -0.07398363 -0.013515876 -0.011751923 0.105471455 -0.012077659 0.0065285577 -0.009909454
-0.006645112 -0.053963616 0.016606146 -0.06567541 0.0015450317 -0.07286084 0.025435789 0.019495519
-0.089306705 0.07138197 -0.09504974 0.053871494 -0.058661457 0.05306346 0.07380504 -0.054503173
0.011896626 0.019737672 -0.050206136 0.024675807 -0.056813147 0.08508924 0.0865414 0.07899028
-0.024298958 -0.097450376 -0.05982516 -0.0011234145 -0.026906854 -0.023176132 0.033941817 0.041487202
-0.0920005 -0.04106099 0.05347551 0.08799112 0.0722529 0.09243538 -0.067962356 0.06410155
-0.06308346 -0.06994585 0.06526155 0.077221975 -0.00040042144 0.054917313 -0.080608964 -0.030777812
00000000: d220 593d ab58 12bd 58b0 1abd a6f9 37bd
00000010: 0264 ae3c f2a2 533d 6475 b43d 48a0 803d
00000020: 2b4f 543d bb84 97bd b171 5dbc 238b 40bc
00000030: 6b01 d83d 60e1 45bc 83ed d53b 435b 22bc
00000040: 3dbf d9bb f408 5dbd 9d09 883c d480 86bd
00000050: a982 ca3a 1038 95bd b75e d03c 11b5 9f3c
00000060: 6fe6 b6bd b630 923d 70a9 c2bd 5ba8 5c3d
00000070: ff46 70bd 1259 593d 1927 973d b83e 5fbd
00000080: 11ea 423c e6b0 a13c f3a4 4dbd eb24 ca3c
00000090: e7b4 68bd 4443 ae3d 9e3c b13d a8c5 a13d
000000a0: 9c0e c7bc 1094 c7bd 3a0b 75bd 893f 93ba
000000b0: c36b dcbc dfdb bdbc 9306 0b3d 7cee 293d
000000c0: c26a bcbd 922f 28bd 2309 5b3d b034 b43d
000000d0: 54f9 933d c34e bd3d d92f 8bbd ac47 833d
000000e0: e731 81bd c53f 8fbd d9a7 853d 8e26 9e3d
000000f0: a8ef d1b9 faf0 603d 5016 a5bd c021 fcbc

layer3.weight f4 [10, 64]
0.041868914 -0.34953338 -0.22506109 -0.08568412 0.37284824 -0.035714965 -0.054324705 -0.10792399
0.15314788 0.04784775 -0.038777813 0.06080606 -0.010979923 0.09349856 -0.13660769 0.030957693
0.04098612 -0.26796302 0.1244226 0.061788406 0.0966752 -0.04007747 0.11324315 0.16999856
0.18481165 -0.28583404 -0.25279665 -0.44804105 -0.08003943 0.3818625 -0.5036958 -0.2993163
-0.16467251 -0.15387566 -0.038554456 -0.084885135 0.51493543 0.06678626 -0.3096161 -0.33633408
-0.021722877 -0.236639 0.22166377 -0.028190015 0.09036216 -0.016304716 0.45310584 -0.20385186
-0.24522151 -0.055413675 -0.2866028 -0.29036224 0.015958605 0.39972454 0.123731606 0.35968506
-0.0800787 -0.012088894 0.10225016 -0.22055712 -0.27894947 0.16239601 0.37747768 -0.1599337
-0.02215699 -0.09954655 0.040700834 0.2020787 -0.2873968 -0.12845112 0.31678793 -0.23669884
-0.16753742 -0.003368288 -0.29007164 -0.089756995 -0.09114695 0.07804213 -0.3154167 -0.022494506
-0.32669842 -0.41039613 -0.15836935 -0.10638496 0.28726012 -0.056781534 0.08153092 -0.3611973
0.38560277 -0.114594705 0.23622583 -0.108165726 -0.10453439 0.11419336 -0.017573526 0.4348849
0.12577564 0.2559192 0.11026902 -0.031306803 -0.17033394 0.005897604 0.17604072 -0.24669854
-0.09521826 0.49199516 -0.18752044 0.088206135 0.25014493 0.32032436 -0.16205066 0.091207266
0.10023043 -0.25105834 0.38819906 -0.26140803 -0.12382105 0.03504438 0.3028416 -0.18677416
0.04790625 -0.34932524 0.13681805 0.4084599 0.3613578 -0.039898377 -0.24053997 0.49466416
0.001964901 -0.15835759 -0.15385304 -0.14969946 -0.10512319 -0.06752261 0.10224807 -0.090670414
-0.19698086 -0.069422595 -0.50731885 0.04337757 0.1756334 -0.03979621 -0.6078328 -0.12162295
-0.19939198 0.2726451 0.4292035 0.026998926 0.018508026 0.06984699 -0.007052708 -0.00634174
0.2564284 -0.26488882 0.37051678 0.49292907 -0.023662662 0.4094587 0.1018838 -0.08732911
-0.10341717 0.12078338 -0.13472067 0.008160181 0.016584525 0.118842006 -0.11511691 0.13923422
0.10279853 0.19859125 -0.35690558 0.122961745 -0.009019032 -0.27878973 0.19782846 -0.49865496
0.6500948 -0.07435681 -0.6263366 -0.2370075 0.016194856 0.18516347 -0.5300739 0.24647006
-0.114237554 0.3948916 0.13892439 0.47955856 0.4290251 0.05950473 0.36055326 -0.08516004
0.08565897 0.36432907 -0.06333673 0.1963328 -0.16394955 -0.052865025 0.1131758 -0.08213156
0.23728497 0.03064058 -0.18336046 0.06987922 0.15096211 -0.30196542 0.03457797 0.015821425
0.47581026 -0.06837425 0.27248073 0.56913406 0.03577582 0.015705377 -0.15017013 0.12365
0.13932842 0.3471071 0.19235715 0.014703433 -0.14692083 -0.19541101 0.6769946 0.5290613
-0.024703776 -0.43640843 0.036481265 0.03599051 0.299511 0.34364274 -0.15290175 -0.18999583
-0.10466745 -0.44243267 -0.16995041 -0.019921185 -0.17106172 -0.17885363 -0.1777955 0.36405283
-0.18356584 -0.619715 -0.13494872 -0.36715424 0.04875672 -0.41806877 -0.086082935 -0.25031948
-0.0148024205 0.29399467 -0.003326746 -0.13746758 -0.16219443 0.048735365 -0.106434956 0.13037048
00000000: bd7e 2b3d 0af6 b2be 6a76 66be 287b afbd
00000010: f7e5 be3e db49 12bd 9583 5ebd 4107 ddbd
00000020: ccd2 1c3e 01fc 433d 7cd5 1ebd c60f 793d
00000030: 23e5 33bc 2c7c bf3d e3e2 0bbe fd9a fd3c
00000040: 10e1 273d 7332 89be 47d1 fe3d d715 7d3d
00000050: a6fd c53d 4628 24bd 06ec e73d 1a14 2e3e
00000060: 443f 3d3e d758 92be 906e 81be a365 e5be
00000070: b6eb a3bd 7b83 c33e 35f2 00bf fc3f 99be
00000080: e99f 28be 9591 1dbe 47eb 1dbd 42d8 adbd
00000090: cfd2 033f 3cc7 883d 0086 9ebe fb33 acbe
000000a0: 2df4 b1bc 7e51 72be d4fb 623e bfee e6bc
000000b0: cc0f b93d 7891 85bc 7dfd e73e 8bbe 50be
000000c0: 591b 7bbe 73f9 62bd 9abd 92be 5caa 94be
000000d0: 9fbb 823c b2a8 cc3e ff66 fd3d a428 b83e
000000e0: 4d00 a4bd 7f10 46bc 8868 d13d bad9 61be
000000f0: 77d2 8ebe 244b 263e c144 c13e a9c5 23be
00000100: 9382 b5bc 10df cbbd ebb5 263d b8ed 4e3e
00000110: ac25 93be b188 03be 0732 a23e 2e61 72be
00000120: ee8e 2bbe 7fbe 5cbb 4584 94be 84d2 b7bd
00000130: 41ab babd 8dd4 9f3d 4c7e a1be 6646 b8bc
00000140: 0445 a7be 711f d2be 932b 22be 5ce0 d9bd
00000150: c213 933e c193 68bd aff9 a63d daee b8be
00000160: ba6d c53e a1b0 eabd 2fe5 713e fe85 ddbd
00000170: 2016 d6bd 35de e93d 5bf6 8fbc 3ca9 de3e
00000180: 54cb 003e d707 833e b9d4 e13d 903b 00bd
00000190: 056c 2ebe b040 c13b 0544 343e 8b9e 7cbe
000001a0: cb01 c3bd cae6 fb3e 5c05 40be 6ba5 b43d
000001b0: ff12 803e 8e01 a43e 9cf0 25be e0ca ba3d
000001c0: 9d45 cd3d b88a 80be 07c2 c63e 46d7 85be
000001d0: e495 fdbd b28a 0f3d 0e0e 9b3e ba41 3fbe
000001e0: 5839 443d c2da b2be 081a 0c3e a821 d13e
000001f0: e403 b93e 7b6c 23bd 1c50 76be 9f44 fd3e
00000200: 92c5 003b 7e28 22be a78b 1dbe d14a 19be
00000210: d44a d7bd 4b49 8abd 7067 d13d 69b1 b9bd
00000220: 5ab5 49be 6f2d 8ebd a6df 01bf aeac 313d
00000230: 3ed9 333e 5a01 23bd ee9a 1bbf 7415 f9bd
00000240: 692d 4cbe 2398 8b3e 90c0 db3e da2c dd3c
00000250: 259e 973c f00b 8f3d 671a e7bb 5fce cfbb
00000260: 954a 833e 829f 87be 60b4 bd3e 3361 fc3e
00000270: 33d8 c1bc 92a4 d13e 74a8 d03d 9bd9 b2bd
00000280: 62cc d3bd 475d f73d 37f4 09be 48b2 053c
00000290: 45dc 873c 7063 f33d 6ac2 ebbd 6a93 0e3e
000002a0: 0988 d23d 815b 4b3e 54bc b6be 5ed3 fb3d
000002b0: 90c4 13bc 87bd 8ebe 8b93 4a3e b44f ffbe
000002c0: 9d6c 263f 6248 98bd 9857 20bf 18b2 72be
000002d0: 13ab 843c 7e9b 3d3e ecb2 07bf a662 7c3e
000002e0: 61f5 e9bd 3b2f ca3e 3242 0e3e b388 f53e
000002f0: 2ea9 db3e 3bbb 733d 709a b83e 6368 aebd
00000300: f86d af3d 5789 ba3e b0b6 81bd 770b 493e
00000310: 64e2 27be ff88 58bd b7c8 e73d 9734 a8bd
00000320: d5fa 723e f401 fb3c d8c2 3bbe d61c 8f3d
00000330: d095 1a3e 369b 9abe a1a1 0d3d ef9b 813c
00000340: 679d f33e cc07 8cbd 9882 8b3e c5b2 113f
00000350: ab89 123d 90a8 803c 33c6 19be 363c fd3d
00000360: 1cac 0e3e 06b8 b13e 46f9 443e abe6 703c
00000370: 6a72 16be d319 48be 854f 2d3f 9070 073f
00000380: 935f cabc ed70 dfbe 616d 153d c96a 133d
00000390: 8159 993e f1f1 af3e 4792 1cbe 448e 42be
000003a0: e35b d6bd 8986 e2be 7b07 2ebe c131 a3bc
000003b0: ce2a 2fbe 6825 37be 0610 36be 2265 ba3e
000003c0: aff8 3bbe a4a5 1ebf ff2f 0abe a4fb bbbe
000003d0: 20b5 473d 1c0d d6be 404c b0bd e029 80be
000003e0: da85 72bc 7886 963e 8905 5abb 4dc4 0cbe
000003f0: 4c16 26be bc9e 473d 92fa d9bd d77f 053e

layer3.bias f4 [10]
0.088673085 -0.13238089 -0.0029093812 0.014072841 0.1382932 0.056608733 -0.041059203 0.07168617
0.113090046 -0.008627746
00000000: 3c9a b53d db8e 07be 51ab 3ebb c691 663c
00000010: bc9c 0d3e 8fde 673d b22d 28bd 33d0 923d
00000020: c19b e73d 645b 0dbc
